…
    pretrain_model_G: C:\Users\Dooly\Desktop\DAN\DAN\experiments\DANv2\dab\models\202500_G.pth
    root: C:\Users\Dooly\Desktop\DAN\DAN
    results_root: C:\Users\Dooly\Desktop\DAN\DAN\results\DANv2\DANx4_setting1
    log: C:\Users\Dooly\Desktop\DAN\DAN\results\DANv2\DANx4_setting1
  ]
  is_train: False

22-08-06 21:41:29.377 - INFO: Dataset [LQGTDataset - REDS] is created.
22-08-06 21:41:29.378 - INFO: Number of test images in [REDS]: 400
22-08-06 21:41:30.881 - INFO: Network G structure: DataParallel - DAN, with parameters: 4,707,708
22-08-06 21:41:30.882 - INFO: DAN(
  (Restorer): Restorer(
    (head1): Conv2d(3, 64, kernel_size=(3, 3), stride=(1, 1), padding=(1, 1))
    (head2): Conv2d(10, 64, kernel_size=(1, 1), stride=(1, 1))
    (body): Sequential(
      (0): DPCG(
        (body): Sequential(
          (0): DPCB(
            (body1): Sequential(
              (0): Conv2d(64, 64, kernel_size=(3, 3), stride=(1, 1), padding=(1, 1))
              (1): LeakyReLU(negative_slope=0.2, inplace=True)
              (2): Conv2d(64, 64, kernel_size=(3, 3), stride=(1, 1), padding=(1, 1))
            )
            (body2): Sequential(
              (0): Conv2d(64, 64, kernel_size=(1, 1), stride=(1, 1))
              (1): LeakyReLU(negative_slope=0.2, inplace=True)
              (2): Conv2d(64, 64, kernel_size=(1, 1), stride=(1, 1))
            )
          )
          (1): DPCB(
            (body1): Sequential(
              (0): Conv2d(64, 64, kernel_size=(3, 3), stride=(1, 1), padding=(1, 1))
              (1): LeakyReLU(negative_slope=0.2, inplace=True)
              (2): Conv2d(64, 64, kernel_size=(3, 3), stride=(1, 1), padding=(1, 1))
            )
            (body2): Sequential(
              (0): Conv2d(64, 64, kernel_size=(1, 1), stride=(1, 1))
              (1): LeakyReLU(negative_slope=0.2, inplace=True)
              (2): Conv2d(64, 64, kernel_size=(1, 1), stride=(1, 1))
            )
          )
          (2): DPCB(
            (body1): Sequential(
              (0): Conv2d(64, 64, kernel_size=(3, 3), stride=(1, 1), padding=(1, 1))
              (1): LeakyReLU(negative_slope=0.2, inplace=True)
              (2): Conv2d(64, 64, kernel_size=(3, 3), stride=(1, 1), padding=(1, 1))
            )
            (body2): Sequential(
              (0): Conv2d(64, 64, kernel_size=(1, 1), stride=(1, 1))
              (1): LeakyReLU(negative_slope=0.2, inplace=True)
              (2): Conv2d(64, 64, kernel_size=(1, 1), stride=(1, 1))
            )
          )
          (3): DPCB(
            (body1): Sequential(
              (0): Conv2d(64, 64, kernel_size=(3, 3), stride=(1, 1), padding=(1, 1))
              (1): LeakyReLU(negative_slope=0.2, inplace=True)
              (2): Conv2d(64, 64, kernel_size=(3, 3), stride=(1, 1), padding=(1, 1))
            )
            (body2): Sequential(
              (0): Conv2d(64, 64, kernel_size=(1, 1), stride=(1, 1))
              (1): LeakyReLU(negative_slope=0.2, inplace=True)
              (2): Conv2d(64, 64, kernel_size=(1, 1), stride=(1, 1))
            )
          )
          (4): DPCB(
            (body1): Sequential(
              (0): Conv2d(64, 64, kernel_size=(3, 3), stride=(1, 1), padding=(1, 1))
              (1): LeakyReLU(negative_slope=0.2, inplace=True)
              (2): Conv2d(64, 64, kernel_size=(3, 3), stride=(1, 1), padding=(1, 1))
            )
            (body2): Sequential(
              (0): Conv2d(64, 64, kernel_size=(1, 1), stride=(1, 1))
              (1): LeakyReLU(negative_slope=0.2, inplace=True)
              (2): Conv2d(64, 64, kernel_size=(1, 1), stride=(1, 1))
            )
          )
          (5): DPCB(
            (body1): Sequential(
              (0): Conv2d(64, 64, kernel_size=(3, 3), stride=(1, 1), padding=(1, 1))
              (1): LeakyReLU(negative_slope=0.2, inplace=True)
              (2): Conv2d(64, 64, kernel_size=(3, 3), stride=(1, 1), padding=(1, 1))
            )
            (body2): Sequential(
              (0): Conv2d(64, 64, kernel_size=(1, 1), stride=(1, 1))
              (1): LeakyReLU(negative_slope=0.2, inplace=True)
              (2): Conv2d(64, 64, kernel_size=(1, 1), stride=(1, 1))
            )
          )
          (6): DPCB(
            (body1): Sequential(
              (0): Conv2d(64, 64, kernel_size=(3, 3), stride=(1, 1), padding=(1, 1))
              (1): LeakyReLU(negative_slope=0.2, inplace=True)
              (2): Conv2d(64, 64, kernel_size=(3, 3), stride=(1, 1), padding=(1, 1))
            )
            (body2): Sequential(
              (0): Conv2d(64, 64, kernel_size=(1, 1), stride=(1, 1))
              (1): LeakyReLU(negative_slope=0.2, inplace=True)
              (2): Conv2d(64, 64, kernel_size=(1, 1), stride=(1, 1))
            )
          )
          (7): DPCB(
            (body1): Sequential(
              (0): Conv2d(64, 64, kernel_size=(3, 3), stride=(1, 1), padding=(1, 1))
              (1): LeakyReLU(negative_slope=0.2, inplace=True)
              (2): Conv2d(64, 64, kernel_size=(3, 3), stride=(1, 1), padding=(1, 1))
            )
            (body2): Sequential(
              (0): Conv2d(64, 64, kernel_size=(1, 1), stride=(1, 1))
              (1): LeakyReLU(negative_slope=0.2, inplace=True)
              (2): Conv2d(64, 64, kernel_size=(1, 1), stride=(1, 1))
            )
          )
          (8): DPCB(
            (body1): Sequential(
              (0): Conv2d(64, 64, kernel_size=(3, 3), stride=(1, 1), padding=(1, 1))
              (1): LeakyReLU(negative_slope=0.2, inplace=True)
              (2): Conv2d(64, 64, kernel_size=(3, 3), stride=(1, 1), padding=(1, 1))
            )
            (body2): Sequential(
              (0): Conv2d(64, 64, kernel_size=(1, 1), stride=(1, 1))
              (1): LeakyReLU(negative_slope=0.2, inplace=True)
              (2): Conv2d(64, 64, kernel_size=(1, 1), stride=(1, 1))
            )
          )
          (9): DPCB(
            (body1): Sequential(
              (0): Conv2d(64, 64, kernel_size=(3, 3), stride=(1, 1), padding=(1, 1))
              (1): LeakyReLU(negative_slope=0.2, inplace=True)
              (2): Conv2d(64, 64, kernel_size=(3, 3), stride=(1, 1), padding=(1, 1))
            )
            (body2): Sequential(
              (0): Conv2d(64, 64, kernel_size=(1, 1), stride=(1, 1))
              (1): LeakyReLU(negative_slope=0.2, inplace=True)
              (2): Conv2d(64, 64, kernel_size=(1, 1), stride=(1, 1))
            )
          )
        )
      )
      (1): DPCG(
        (body): Sequential(
          (0): DPCB(
            (body1): Sequential(
              (0): Conv2d(64, 64, kernel_size=(3, 3), stride=(1, 1), padding=(1, 1))
              (1): LeakyReLU(negative_slope=0.2, inplace=True)
              (2): Conv2d(64, 64, kernel_size=(3, 3), stride=(1, 1), padding=(1, 1))
            )
            (body2): Sequential(
              (0): Conv2d(64, 64, kernel_size=(1, 1), stride=(1, 1))
              (1): LeakyReLU(negative_slope=0.2, inplace=True)
              (2): Conv2d(64, 64, kernel_size=(1, 1), stride=(1, 1))
            )
          )
          (1): DPCB(
            (body1): Sequential(
              (0): Conv2d(64, 64, kernel_size=(3, 3), stride=(1, 1), padding=(1, 1))
              (1): LeakyReLU(negative_slope=0.2, inplace=True)
              (2): Conv2d(64, 64, kernel_size=(3, 3), stride=(1, 1), padding=(1, 1))
            )
            (body2): Sequential(
              (0): Conv2d(64, 64, kernel_size=(1, 1), stride=(1, 1))
              (1): LeakyReLU(negative_slope=0.2, inplace=True)
              (2): Conv2d(64, 64, kernel_size=(1, 1), stride=(1, 1))
            )
          )
          (2): DPCB(
            (body1): Sequential(
              (0): Conv2d(64, 64, kernel_size=(3, 3), stride=(1, 1), padding=(1, 1))
              (1): LeakyReLU(negative_slope=0.2, inplace=True)
              (2): Conv2d(64, 64, kernel_size=(3, 3), stride=(1, 1), padding=(1, 1))
            )
            (body2): Sequential(
              (0): Conv2d(64, 64, kernel_size=(1, 1), stride=(1, 1))
              (1): LeakyReLU(negative_slope=0.2, inplace=True)
              (2): Conv2d(64, 64, kernel_size=(1, 1), stride=(1, 1))
            )
          )
          (3): DPCB(
            (body1): Sequential(
              (0): Conv2d(64, 64, kernel_size=(3, 3), stride=(1, 1), padding=(1, 1))
              (1): LeakyReLU(negative_slope=0.2, inplace=True)
              (2): Conv2d(64, 64, kernel_size=(3, 3), stride=(1, 1), padding=(1, 1))
            )
            (body2): Sequential(
              (0): Conv2d(64, 64, kernel_size=(1, 1), stride=(1, 1))
              (1): LeakyReLU(negative_slope=0.2, inplace=True)
              (2): Conv2d(64, 64, kernel_size=(1, 1), stride=(1, 1))
            )
          )
          (4): DPCB(
            (body1): Sequential(
              (0): Conv2d(64, 64, kernel_size=(3, 3), stride=(1, 1), padding=(1, 1))
              (1): LeakyReLU(negative_slope=0.2, inplace=True)
              (2): Conv2d(64, 64, kernel_size=(3, 3), stride=(1, 1), padding=(1, 1))
            )
            (body2): Sequential(
              (0): Conv2d(64, 64, kernel_size=(1, 1), stride=(1, 1))
              (1): LeakyReLU(negative_slope=0.2, inplace=True)
              (2): Conv2d(64, 64, kernel_size=(1, 1), stride=(1, 1))
            )
          )
          (5): DPCB(
            (body1): Sequential(
              (0): Conv2d(64, 64, kernel_size=(3, 3), stride=(1, 1), padding=(1, 1))
              (1): LeakyReLU(negative_slope=0.2, inplace=True)
              (2): Conv2d(64, 64, kernel_size=(3, 3), stride=(1, 1), padding=(1, 1))
            )
            (body2): Sequential(
              (0): Conv2d(64, 64, kernel_size=(1, 1), stride=(1, 1))
              (1): LeakyReLU(negative_slope=0.2, inplace=True)
              (2): Conv2d(64, 64, kernel_size=(1, 1), stride=(1, 1))
            )
          )
          (6): DPCB(
            (body1): Sequential(
              (0): Conv2d(64, 64, kernel_size=(3, 3), stride=(1, 1), padding=(1, 1))
              (1): LeakyReLU(negative_slope=0.2, inplace=True)
              (2): Conv2d(64, 64, kernel_size=(3, 3), stride=(1, 1), padding=(1, 1))
            )
            (body2): Sequential(
              (0): Conv2d(64, 64, kernel_size=(1, 1), stride=(1, 1))
              (1): LeakyReLU(negative_slope=0.2, inplace=True)
              (2): Conv2d(64, 64, kernel_size=(1, 1), stride=(1, 1))
            )
          )
          (7): DPCB(
            (body1): Sequential(
              (0): Conv2d(64, 64, kernel_size=(3, 3), stride=(1, 1), padding=(1, 1))
              (1): LeakyReLU(negative_slope=0.2, inplace=True)
              (2): Conv2d(64, 64, kernel_size=(3, 3), stride=(1, 1), padding=(1, 1))
            )
            (body2): Sequential(
              (0): Conv2d(64, 64, kernel_size=(1, 1), stride=(1, 1))
              (1): LeakyReLU(negative_slope=0.2, inplace=True)
              (2): Conv2d(64, 64, kernel_size=(1, 1), stride=(1, 1))
            )
          )
          (8): DPCB(
            (body1): Sequential(
              (0): Conv2d(64, 64, kernel_size=(3, 3), stride=(1, 1), padding=(1, 1))
              (1): LeakyReLU(negative_slope=0.2, inplace=True)
              (2): Conv2d(64, 64, kernel_size=(3, 3), stride=(1, 1), padding=(1, 1))
            )
            (body2): Sequential(
              (0): Conv2d(64, 64, kernel_size=(1, 1), stride=(1, 1))
              (1): LeakyReLU(negative_slope=0.2, inplace=True)
              (2): Conv2d(64, 64, kernel_size=(1, 1), stride=(1, 1))
            )
          )
          (9): DPCB(
            (body1): Sequential(
              (0): Conv2d(64, 64, kernel_size=(3, 3), stride=(1, 1), padding=(1, 1))
              (1): LeakyReLU(negative_slope=0.2, inplace=True)
              (2): Conv2d(64, 64, kernel_size=(3, 3), stride=(1, 1), padding=(1, 1))
            )
            (body2): Sequential(
              (0): Conv2d(64, 64, kernel_size=(1, 1), stride=(1, 1))
              (1): LeakyReLU(negative_slope=0.2, inplace=True)
              (2): Conv2d(64, 64, kernel_size=(1, 1), stride=(1, 1))
            )
          )
        )
      )
      (2): DPCG(
        (body): Sequential(
          (0): DPCB(
            (body1): Sequential(
              (0): Conv2d(64, 64, kernel_size=(3, 3), stride=(1, 1), padding=(1, 1))
              (1): LeakyReLU(negative_slope=0.2, inplace=True)
              (2): Conv2d(64, 64, kernel_size=(3, 3), stride=(1, 1), padding=(1, 1))
            )
            (body2): Sequential(
              (0): Conv2d(64, 64, kernel_size=(1, 1), stride=(1, 1))
              (1): LeakyReLU(negative_slope=0.2, inplace=True)
              (2): Conv2d(64, 64, kernel_size=(1, 1), stride=(1, 1))
            )
          )
          (1): DPCB(
            (body1): Sequential(
              (0): Conv2d(64, 64, kernel_size=(3, 3), stride=(1, 1), padding=(1, 1))
              (1): LeakyReLU(negative_slope=0.2, inplace=True)
              (2): Conv2d(64, 64, kernel_size=(3, 3), stride=(1, 1), padding=(1, 1))
            )
            (body2): Sequential(
              (0): Conv2d(64, 64, kernel_size=(1, 1), stride=(1, 1))
              (1): LeakyReLU(negative_slope=0.2, inplace=True)
              (2): Conv2d(64, 64, kernel_size=(1, 1), stride=(1, 1))
            )
          )
          (2): DPCB(
            (body1): Sequential(
              (0): Conv2d(64, 64, kernel_size=(3, 3), stride=(1, 1), padding=(1, 1))
              (1): LeakyReLU(negative_slope=0.2, inplace=True)
              (2): Conv2d(64, 64, kernel_size=(3, 3), stride=(1, 1), padding=(1, 1))
            )
            (body2): Sequential(
              (0): Conv2d(64, 64, kernel_size=(1, 1), stride=(1, 1))
              (1): LeakyReLU(negative_slope=0.2, inplace=True)
              (2): Conv2d(64, 64, kernel_size=(1, 1), stride=(1, 1))
            )
          )
          (3): DPCB(
            (body1): Sequential(
              (0): Conv2d(64, 64, kernel_size=(3, 3), stride=(1, 1), padding=(1, 1))
              (1): LeakyReLU(negative_slope=0.2, inplace=True)
              (2): Conv2d(64, 64, kernel_size=(3, 3), stride=(1, 1), padding=(1, 1))
            )
            (body2): Sequential(
              (0): Conv2d(64, 64, kernel_size=(1, 1), stride=(1, 1))
              (1): LeakyReLU(negative_slope=0.2, inplace=True)
              (2): Conv2d(64, 64, kernel_size=(1, 1), stride=(1, 1))
            )
          )
          (4): DPCB(
            (body1): Sequential(
              (0): Conv2d(64, 64, kernel_size=(3, 3), stride=(1, 1), padding=(1, 1))
              (1): LeakyReLU(negative_slope=0.2, inplace=True)
              (2): Conv2d(64, 64, kernel_size=(3, 3), stride=(1, 1), padding=(1, 1))
            )
            (body2): Sequential(
              (0): Conv2d(64, 64, kernel_size=(1, 1), stride=(1, 1))
              (1): LeakyReLU(negative_slope=0.2, inplace=True)
              (2): Conv2d(64, 64, kernel_size=(1, 1), stride=(1, 1))
            )
          )
          (5): DPCB(
            (body1): Sequential(
              (0): Conv2d(64, 64, kernel_size=(3, 3), stride=(1, 1), padding=(1, 1))
              (1): LeakyReLU(negative_slope=0.2, inplace=True)
              (2): Conv2d(64, 64, kernel_size=(3, 3), stride=(1, 1), padding=(1, 1))
            )
            (body2): Sequential(
              (0): Conv2d(64, 64, kernel_size=(1, 1), stride=(1, 1))
              (1): LeakyReLU(negative_slope=0.2, inplace=True)
              (2): Conv2d(64, 64, kernel_size=(1, 1), stride=(1, 1))
            )
          )
          (6): DPCB(
            (body1): Sequential(
              (0): Conv2d(64, 64, kernel_size=(3, 3), stride=(1, 1), padding=(1, 1))
              (1): LeakyReLU(negative_slope=0.2, inplace=True)
              (2): Conv2d(64, 64, kernel_size=(3, 3), stride=(1, 1), padding=(1, 1))
            )
            (body2): Sequential(
              (0): Conv2d(64, 64, kernel_size=(1, 1), stride=(1, 1))
              (1): LeakyReLU(negative_slope=0.2, inplace=True)
              (2): Conv2d(64, 64, kernel_size=(1, 1), stride=(1, 1))
            )
          )
          (7): DPCB(
            (body1): Sequential(
              (0): Conv2d(64, 64, kernel_size=(3, 3), stride=(1, 1), padding=(1, 1))
              (1): LeakyReLU(negative_slope=0.2, inplace=True)
              (2): Conv2d(64, 64, kernel_size=(3, 3), stride=(1, 1), padding=(1, 1))
            )
            (body2): Sequential(
              (0): Conv2d(64, 64, kernel_size=(1, 1), stride=(1, 1))
              (1): LeakyReLU(negative_slope=0.2, inplace=True)
              (2): Conv2d(64, 64, kernel_size=(1, 1), stride=(1, 1))
            )
          )
          (8): DPCB(
            (body1): Sequential(
              (0): Conv2d(64, 64, kernel_size=(3, 3), stride=(1, 1), padding=(1, 1))
              (1): LeakyReLU(negative_slope=0.2, inplace=True)
              (2): Conv2d(64, 64, kernel_size=(3, 3), stride=(1, 1), padding=(1, 1))
            )
            (body2): Sequential(
              (0): Conv2d(64, 64, kernel_size=(1, 1), stride=(1, 1))
              (1): LeakyReLU(negative_slope=0.2, inplace=True)
              (2): Conv2d(64, 64, kernel_size=(1, 1), stride=(1, 1))
            )
          )
          (9): DPCB(
            (body1): Sequential(
              (0): Conv2d(64, 64, kernel_size=(3, 3), stride=(1, 1), padding=(1, 1))
              (1): LeakyReLU(negative_slope=0.2, inplace=True)
              (2): Conv2d(64, 64, kernel_size=(3, 3), stride=(1, 1), padding=(1, 1))
            )
            (body2): Sequential(
              (0): Conv2d(64, 64, kernel_size=(1, 1), stride=(1, 1))
              (1): LeakyReLU(negative_slope=0.2, inplace=True)
              (2): Conv2d(64, 64, kernel_size=(1, 1), stride=(1, 1))
            )
          )
        )
      )
      (3): DPCG(
        (body): Sequential(
          (0): DPCB(
            (body1): Sequential(
              (0): Conv2d(64, 64, kernel_size=(3, 3), stride=(1, 1), padding=(1, 1))
              (1): LeakyReLU(negative_slope=0.2, inplace=True)
              (2): Conv2d(64, 64, kernel_size=(3, 3), stride=(1, 1), padding=(1, 1))
            )
            (body2): Sequential(
              (0): Conv2d(64, 64, kernel_size=(1, 1), stride=(1, 1))
              (1): LeakyReLU(negative_slope=0.2, inplace=True)
              (2): Conv2d(64, 64, kernel_size=(1, 1), stride=(1, 1))
            )
          )
          (1): DPCB(
            (body1): Sequential(
              (0): Conv2d(64, 64, kernel_size=(3, 3), stride=(1, 1), padding=(1, 1))
              (1): LeakyReLU(negative_slope=0.2, inplace=True)
              (2): Conv2d(64, 64, kernel_size=(3, 3), stride=(1, 1), padding=(1, 1))
            )
            (body2): Sequential(
              (0): Conv2d(64, 64, kernel_size=(1, 1), stride=(1, 1))
              (1): LeakyReLU(negative_slope=0.2, inplace=True)
              (2): Conv2d(64, 64, kernel_size=(1, 1), stride=(1, 1))
            )
          )
          (2): DPCB(
            (body1): Sequential(
              (0): Conv2d(64, 64, kernel_size=(3, 3), stride=(1, 1), padding=(1, 1))
              (1): LeakyReLU(negative_slope=0.2, inplace=True)
              (2): Conv2d(64, 64, kernel_size=(3, 3), stride=(1, 1), padding=(1, 1))
            )
            (body2): Sequential(
              (0): Conv2d(64, 64, kernel_size=(1, 1), stride=(1, 1))
              (1): LeakyReLU(negative_slope=0.2, inplace=True)
              (2): Conv2d(64, 64, kernel_size=(1, 1), stride=(1, 1))
            )
          )
          (3): DPCB(
            (body1): Sequential(
              (0): Conv2d(64, 64, kernel_size=(3, 3), stride=(1, 1), padding=(1, 1))
              (1): LeakyReLU(negative_slope=0.2, inplace=True)
              (2): Conv2d(64, 64, kernel_size=(3, 3), stride=(1, 1), padding=(1, 1))
            )
            (body2): Sequential(
              (0): Conv2d(64, 64, kernel_size=(1, 1), stride=(1, 1))
              (1): LeakyReLU(negative_slope=0.2, inplace=True)
              (2): Conv2d(64, 64, kernel_size=(1, 1), stride=(1, 1))
            )
          )
          (4): DPCB(
            (body1): Sequential(
              (0): Conv2d(64, 64, kernel_size=(3, 3), stride=(1, 1), padding=(1, 1))
              (1): LeakyReLU(negative_slope=0.2, inplace=True)
              (2): Conv2d(64, 64, kernel_size=(3, 3), stride=(1, 1), padding=(1, 1))
            )
            (body2): Sequential(
              (0): Conv2d(64, 64, kernel_size=(1, 1), stride=(1, 1))
              (1): LeakyReLU(negative_slope=0.2, inplace=True)
              (2): Conv2d(64, 64, kernel_size=(1, 1), stride=(1, 1))
            )
          )
          (5): DPCB(
            (body1): Sequential(
              (0): Conv2d(64, 64, kernel_size=(3, 3), stride=(1, 1), padding=(1, 1))
              (1): LeakyReLU(negative_slope=0.2, inplace=True)
              (2): Conv2d(64, 64, kernel_size=(3, 3), stride=(1, 1), padding=(1, 1))
            )
            (body2): Sequential(
              (0): Conv2d(64, 64, kernel_size=(1, 1), stride=(1, 1))
              (1): LeakyReLU(negative_slope=0.2, inplace=True)
              (2): Conv2d(64, 64, kernel_size=(1, 1), stride=(1, 1))
            )
          )
          (6): DPCB(
            (body1): Sequential(
              (0): Conv2d(64, 64, kernel_size=(3, 3), stride=(1, 1), padding=(1, 1))
              (1): LeakyReLU(negative_slope=0.2, inplace=True)
              (2): Conv2d(64, 64, kernel_size=(3, 3), stride=(1, 1), padding=(1, 1))
            )
            (body2): Sequential(
              (0): Conv2d(64, 64, kernel_size=(1, 1), stride=(1, 1))
              (1): LeakyReLU(negative_slope=0.2, inplace=True)
              (2): Conv2d(64, 64, kernel_size=(1, 1), stride=(1, 1))
            )
          )
          (7): DPCB(
            (body1): Sequential(
              (0): Conv2d(64, 64, kernel_size=(3, 3), stride=(1, 1), padding=(1, 1))
              (1): LeakyReLU(negative_slope=0.2, inplace=True)
              (2): Conv2d(64, 64, kernel_size=(3, 3), stride=(1, 1), padding=(1, 1))
            )
            (body2): Sequential(
              (0): Conv2d(64, 64, kernel_size=(1, 1), stride=(1, 1))
              (1): LeakyReLU(negative_slope=0.2, inplace=True)
              (2): Conv2d(64, 64, kernel_size=(1, 1), stride=(1, 1))
            )
          )
          (8): DPCB(
            (body1): Sequential(
              (0): Conv2d(64, 64, kernel_size=(3, 3), stride=(1, 1), padding=(1, 1))
              (1): LeakyReLU(negative_slope=0.2, inplace=True)
              (2): Conv2d(64, 64, kernel_size=(3, 3), stride=(1, 1), padding=(1, 1))
            )
            (body2): Sequential(
              (0): Conv2d(64, 64, kernel_size=(1, 1), stride=(1, 1))
              (1): LeakyReLU(negative_slope=0.2, inplace=True)
              (2): Conv2d(64, 64, kernel_size=(1, 1), stride=(1, 1))
            )
          )
          (9): DPCB(
            (body1): Sequential(
              (0): Conv2d(64, 64, kernel_size=(3, 3), stride=(1, 1), padding=(1, 1))
              (1): LeakyReLU(negative_slope=0.2, inplace=True)
              (2): Conv2d(64, 64, kernel_size=(3, 3), stride=(1, 1), padding=(1, 1))
            )
            (body2): Sequential(
              (0): Conv2d(64, 64, kernel_size=(1, 1), stride=(1, 1))
              (1): LeakyReLU(negative_slope=0.2, inplace=True)
              (2): Conv2d(64, 64, kernel_size=(1, 1), stride=(1, 1))
            )
          )
        )
      )
      (4): DPCG(
        (body): Sequential(
          (0): DPCB(
            (body1): Sequential(
              (0): Conv2d(64, 64, kernel_size=(3, 3), stride=(1, 1), padding=(1, 1))
              (1): LeakyReLU(negative_slope=0.2, inplace=True)
              (2): Conv2d(64, 64, kernel_size=(3, 3), stride=(1, 1), padding=(1, 1))
            )
            (body2): Sequential(
              (0): Conv2d(64, 64, kernel_size=(1, 1), stride=(1, 1))
              (1): LeakyReLU(negative_slope=0.2, inplace=True)
              (2): Conv2d(64, 64, kernel_size=(1, 1), stride=(1, 1))
            )
          )
          (1): DPCB(
            (body1): Sequential(
              (0): Conv2d(64, 64, kernel_size=(3, 3), stride=(1, 1), padding=(1, 1))
              (1): LeakyReLU(negative_slope=0.2, inplace=True)
              (2): Conv2d(64, 64, kernel_size=(3, 3), stride=(1, 1), padding=(1, 1))
            )
            (body2): Sequential(
              (0): Conv2d(64, 64, kernel_size=(1, 1), stride=(1, 1))
              (1): LeakyReLU(negative_slope=0.2, inplace=True)
              (2): Conv2d(64, 64, kernel_size=(1, 1), stride=(1, 1))
            )
          )
          (2): DPCB(
            (body1): Sequential(
              (0): Conv2d(64, 64, kernel_size=(3, 3), stride=(1, 1), padding=(1, 1))
              (1): LeakyReLU(negative_slope=0.2, inplace=True)
              (2): Conv2d(64, 64, kernel_size=(3, 3), stride=(1, 1), padding=(1, 1))
            )
            (body2): Sequential(
              (0): Conv2d(64, 64, kernel_size=(1, 1), stride=(1, 1))
              (1): LeakyReLU(negative_slope=0.2, inplace=True)
              (2): Conv2d(64, 64, kernel_size=(1, 1), stride=(1, 1))
            )
          )
          (3): DPCB(
            (body1): Sequential(
              (0): Conv2d(64, 64, kernel_size=(3, 3), stride=(1, 1), padding=(1, 1))
              (1): LeakyReLU(negative_slope=0.2, inplace=True)
              (2): Conv2d(64, 64, kernel_size=(3, 3), stride=(1, 1), padding=(1, 1))
            )
            (body2): Sequential(
              (0): Conv2d(64, 64, kernel_size=(1, 1), stride=(1, 1))
              (1): LeakyReLU(negative_slope=0.2, inplace=True)
              (2): Conv2d(64, 64, kernel_size=(1, 1), stride=(1, 1))
            )
          )
          (4): DPCB(
            (body1): Sequential(
              (0): Conv2d(64, 64, kernel_size=(3, 3), stride=(1, 1), padding=(1, 1))
              (1): LeakyReLU(negative_slope=0.2, inplace=True)
              (2): Conv2d(64, 64, kernel_size=(3, 3), stride=(1, 1), padding=(1, 1))
            )
            (body2): Sequential(
              (0): Conv2d(64, 64, kernel_size=(1, 1), stride=(1, 1))
              (1): LeakyReLU(negative_slope=0.2, inplace=True)
              (2): Conv2d(64, 64, kernel_size=(1, 1), stride=(1, 1))
            )
          )
          (5): DPCB(
            (body1): Sequential(
              (0): Conv2d(64, 64, kernel_size=(3, 3), stride=(1, 1), padding=(1, 1))
              (1): LeakyReLU(negative_slope=0.2, inplace=True)
              (2): Conv2d(64, 64, kernel_size=(3, 3), stride=(1, 1), padding=(1, 1))
            )
            (body2): Sequential(
              (0): Conv2d(64, 64, kernel_size=(1, 1), stride=(1, 1))
              (1): LeakyReLU(negative_slope=0.2, inplace=True)
              (2): Conv2d(64, 64, kernel_size=(1, 1), stride=(1, 1))
            )
          )
          (6): DPCB(
            (body1): Sequential(
              (0): Conv2d(64, 64, kernel_size=(3, 3), stride=(1, 1), padding=(1, 1))
              (1): LeakyReLU(negative_slope=0.2, inplace=True)
              (2): Conv2d(64, 64, kernel_size=(3, 3), stride=(1, 1), padding=(1, 1))
            )
            (body2): Sequential(
              (0): Conv2d(64, 64, kernel_size=(1, 1), stride=(1, 1))
              (1): LeakyReLU(negative_slope=0.2, inplace=True)
              (2): Conv2d(64, 64, kernel_size=(1, 1), stride=(1, 1))
            )
          )
          (7): DPCB(
            (body1): Sequential(
              (0): Conv2d(64, 64, kernel_size=(3, 3), stride=(1, 1), padding=(1, 1))
              (1): LeakyReLU(negative_slope=0.2, inplace=True)
              (2): Conv2d(64, 64, kernel_size=(3, 3), stride=(1, 1), padding=(1, 1))
            )
            (body2): Sequential(
              (0): Conv2d(64, 64, kernel_size=(1, 1), stride=(1, 1))
              (1): LeakyReLU(negative_slope=0.2, inplace=True)
              (2): Conv2d(64, 64, kernel_size=(1, 1), stride=(1, 1))
            )
          )
          (8): DPCB(
            (body1): Sequential(
              (0): Conv2d(64, 64, kernel_size=(3, 3), stride=(1, 1), padding=(1, 1))
              (1): LeakyReLU(negative_slope=0.2, inplace=True)
              (2): Conv2d(64, 64, kernel_size=(3, 3), stride=(1, 1), padding=(1, 1))
            )
            (body2): Sequential(
              (0): Conv2d(64, 64, kernel_size=(1, 1), stride=(1, 1))
              (1): LeakyReLU(negative_slope=0.2, inplace=True)
              (2): Conv2d(64, 64, kernel_size=(1, 1), stride=(1, 1))
            )
          )
          (9): DPCB(
            (body1): Sequential(
              (0): Conv2d(64, 64, kernel_size=(3, 3), stride=(1, 1), padding=(1, 1))
              (1): LeakyReLU(negative_slope=0.2, inplace=True)
              (2): Conv2d(64, 64, kernel_size=(3, 3), stride=(1, 1), padding=(1, 1))
            )
            (body2): Sequential(
              (0): Conv2d(64, 64, kernel_size=(1, 1), stride=(1, 1))
              (1): LeakyReLU(negative_slope=0.2, inplace=True)
              (2): Conv2d(64, 64, kernel_size=(1, 1), stride=(1, 1))
            )
          )
        )
      )
    )
    (fusion): Conv2d(64, 64, kernel_size=(3, 3), stride=(1, 1), padding=(1, 1))
    (upscale): Sequential(
      (0): Conv2d(64, 256, kernel_size=(3, 3), stride=(1, 1), padding=(1, 1))
      (1): PixelShuffle(upscale_factor=2)
      (2): Conv2d(64, 256, kernel_size=(3, 3), stride=(1, 1), padding=(1, 1))
      (3): PixelShuffle(upscale_factor=2)
      (4): Conv2d(64, 3, kernel_size=(3, 3), stride=(1, 1), padding=(1, 1))
    )
  )
  (Estimator): Estimator(
    (head_LR): Sequential(
      (0): Conv2d(3, 32, kernel_size=(5, 5), stride=(1, 1), padding=(2, 2))
    )
    (head_HR): Sequential(
      (0): Conv2d(3, 32, kernel_size=(17, 17), stride=(4, 4), padding=(8, 8))
    )
    (body): DPCG(
      (body): Sequential(
        (0): DPCB(
          (body1): Sequential(
            (0): Conv2d(32, 32, kernel_size=(3, 3), stride=(1, 1), padding=(1, 1))
            (1): LeakyReLU(negative_slope=0.2, inplace=True)
            (2): Conv2d(32, 32, kernel_size=(3, 3), stride=(1, 1), padding=(1, 1))
          )
          (body2): Sequential(
            (0): Conv2d(32, 32, kernel_size=(3, 3), stride=(1, 1), padding=(1, 1))
            (1): LeakyReLU(negative_slope=0.2, inplace=True)
            (2): Conv2d(32, 32, kernel_size=(3, 3), stride=(1, 1), padding=(1, 1))
          )
        )
        (1): DPCB(
          (body1): Sequential(
            (0): Conv2d(32, 32, kernel_size=(3, 3), stride=(1, 1), padding=(1, 1))
            (1): LeakyReLU(negative_slope=0.2, inplace=True)
            (2): Conv2d(32, 32, kernel_size=(3, 3), stride=(1, 1), padding=(1, 1))
          )
          (body2): Sequential(
            (0): Conv2d(32, 32, kernel_size=(3, 3), stride=(1, 1), padding=(1, 1))
            (1): LeakyReLU(negative_slope=0.2, inplace=True)
            (2): Conv2d(32, 32, kernel_size=(3, 3), stride=(1, 1), padding=(1, 1))
          )
        )
        (2): DPCB(
          (body1): Sequential(
            (0): Conv2d(32, 32, kernel_size=(3, 3), stride=(1, 1), padding=(1, 1))
            (1): LeakyReLU(negative_slope=0.2, inplace=True)
            (2): Conv2d(32, 32, kernel_size=(3, 3), stride=(1, 1), padding=(1, 1))
          )
          (body2): Sequential(
            (0): Conv2d(32, 32, kernel_size=(3, 3), stride=(1, 1), padding=(1, 1))
            (1): LeakyReLU(negative_slope=0.2, inplace=True)
            (2): Conv2d(32, 32, kernel_size=(3, 3), stride=(1, 1), padding=(1, 1))
          )
        )
        (3): DPCB(
          (body1): Sequential(
            (0): Conv2d(32, 32, kernel_size=(3, 3), stride=(1, 1), padding=(1, 1))
            (1): LeakyReLU(negative_slope=0.2, inplace=True)
            (2): Conv2d(32, 32, kernel_size=(3, 3), stride=(1, 1), padding=(1, 1))
          )
          (body2): Sequential(
            (0): Conv2d(32, 32, kernel_size=(3, 3), stride=(1, 1), padding=(1, 1))
            (1): LeakyReLU(negative_slope=0.2, inplace=True)
            (2): Conv2d(32, 32, kernel_size=(3, 3), stride=(1, 1), padding=(1, 1))
          )
        )
        (4): DPCB(
          (body1): Sequential(
            (0): Conv2d(32, 32, kernel_size=(3, 3), stride=(1, 1), padding=(1, 1))
            (1): LeakyReLU(negative_slope=0.2, inplace=True)
            (2): Conv2d(32, 32, kernel_size=(3, 3), stride=(1, 1), padding=(1, 1))
          )
          (body2): Sequential(
            (0): Conv2d(32, 32, kernel_size=(3, 3), stride=(1, 1), padding=(1, 1))
            (1): LeakyReLU(negative_slope=0.2, inplace=True)
            (2): Conv2d(32, 32, kernel_size=(3, 3), stride=(1, 1), padding=(1, 1))
          )
        )
      )
    )
    (tail): Sequential(
      (0): Conv2d(32, 64, kernel_size=(3, 3), stride=(1, 1), padding=(1, 1))
      (1): AdaptiveAvgPool2d(output_size=1)
      (2): Conv2d(64, 441, kernel_size=(1, 1), stride=(1, 1))
      (3): Softmax(dim=1)
    )
  )
)
22-08-06 21:41:30.934 - INFO: Loading model for G [C:\Users\Dooly\Desktop\DAN\DAN\experiments\DANv2\dab\models\202500_G.pth] ...
22-08-06 21:41:31.100 - INFO: Model [B_Model] is created.
22-08-06 21:41:31.100 - INFO: 
Testing [REDS]...
22-08-06 21:41:34.965 - INFO: img:D:\REDS4\val\val_0train_000000000.png - PSNR: 23.237744 dB; SSIM: 0.632583; PSNR_Y: 24.634692 dB; SSIM_Y: 0.668829.
…
